…
is model on the GPU.\n","model.cuda()"],"execution_count":null,"outputs":[{"output_type":"stream","name":"stderr","text":["Some weights of BertForSequenceClassification were not initialized from the model checkpoint at bert-base-uncased and are newly initialized: ['classifier.weight', 'classifier.bias']\n","You should probably TRAIN this model on a down-stream task to be able to use it for predictions and inference.\n"]},{"output_type":"execute_result","data":{"text/plain":["BertForSequenceClassification(\n","  (bert): BertModel(\n","    (embeddings): BertEmbeddings(\n","      (word_embeddings): Embedding(30522, 768, padding_idx=0)\n","      (position_embeddings): Embedding(512, 768)\n","      (token_type_embeddings): Embedding(2, 768)\n","      (LayerNorm): LayerNorm((768,), eps=1e-12, elementwise_affine=True)\n","      (dropout): Dropout(p=0.1, inplace=False)\n","    )\n","    (encoder): BertEncoder(\n","      (layer): ModuleList(\n","        (0-11): 12 x BertLayer(\n","          (attention): BertAttention(\n","            (self): BertSelfAttention(\n","              (query): Linear(in_features=768, out_features=768, bias=True)\n","              (key): Linear(in_features=768, out_features=768, bias=True)\n","              (value): Linear(in_features=768, out_features=768, bias=True)\n","              (dropout): Dropout(p=0.1, inplace=False)\n","            )\n","            (output): BertSelfOutput(\n","              (dense): Linear(in_features=768, out_features=768, bias=True)\n","              (LayerNorm): LayerNorm((768,), eps=1e-12, elementwise_affine=True)\n","              (dropout): Dropout(p=0.1, inplace=False)\n","            )\n","          )\n","          (intermediate): BertIntermediate(\n","            (dense): Linear(in_features=768, out_features=3072, bias=True)\n","            (intermediate_act_fn): GELUActivation()\n","          )\n","          (output): BertOutput(\n","            (dense): Linear(in_features=3072, out_features=768, bias=True)\n","            (LayerNorm): LayerNorm((768,), eps=1e-12, elementwise_affine=True)\n","            (dropout): Dropout(p=0.1, inplace=False)\n","          )\n","        )\n","      )\n","    )\n","    (pooler): BertPooler(\n","      (dense): Linear(in_features=768, out_features=768, bias=True)\n","      (activation): Tanh()\n","    )\n","  )\n","  (dropout): Dropout(p=0.1, inplace=False)\n","  (classifier): Linear(in_features=768, out_features=3, bias=True)\n",")"]},"metadata":{},"execution_count":35}]},{"cell_type":"code","source":["from transformers import BertForSequenceClassification, AdamW, BertConfig\n","\n","from peft import LoraConfig, TaskType\n","\n","lora_config = LoraConfig(\n","    task_type=TaskType.SEQ_CLS, r=256, lora_alpha=0.5, lora_dropout=0.1\n",")\n","\n","# Load BertForSequenceClassific
…
","name":"stderr","text":["Some weights of BertForSequenceClassification were not initialized from the model checkpoint at bert-base-uncased and are newly initialized: ['classifier.weight', 'classifier.bias']\n","You should probably TRAIN this model on a down-stream task to be able to use it for predictions and inference.\n"]},{"output_type":"execute_result","data":{"text/plain":["PeftModelForSequenceClassification(\n","  (base_model): LoraModel(\n","    (model): BertForSequenceClassification(\n","      (bert): BertModel(\n","        (embeddings): BertEmbeddings(\n","          (word_embeddings): Embedding(30522, 768, padding_idx=0)\n","          (position_embeddings): Embedding(512, 768)\n","          (token_type_embeddings): Embedding(2, 768)\n","          (LayerNorm): LayerNorm((768,), eps=1e-12, elementwise_affine=True)\n","          (dropout): Dropout(p=0.1, inplace=False)\n","        )\n","        (encoder): BertEncoder(\n","          (layer): ModuleList(\n","            (0-11): 12 x BertLayer(\n","              (attention): BertAttention(\n","                (self): BertSelfAttention(\n","                  (query): Linear(\n","                    in_features=768, out_features=768, bias=True\n","                    (lora_dropout): ModuleDict(\n","                      (default): Dropout(p=0.1, inplace=False)\n","                    )\n","                    (lora_A): ModuleDict(\n","                      (default): Linear(in_features=768, out_features=256, bias=False)\n","                    )\n","                    (lora_B): ModuleDict(\n","                      (default): Linear(in_features=256, out_features=768, bias=False)\n","                    )\n","                    (lora_embedding_A): ParameterDict()\n","                    (lora_embedding_B): ParameterDict()\n","                  )\n","                  (key): Linear(in_features=768, out_features=768, bias=True)\n","                  (value): Linear(\n","                    in_features=768, out_features=768, bias=True\n","                    (lora_dropout): ModuleDict(\n","                      (default): Dropout(p=0.1, inplace=False)\n","                    )\n","                    (lora_A): ModuleDict(\n","                      (default): Linear(in_features=768, out_features=256, bias=False)\n","                    )\n","                    (lora_B): ModuleDict(\n","                      (default): Linear(in_features=256, out_features=768, bias=False)\n","                    )\n","                    (lora_embedding_A): ParameterDict()\n","                    (lora_embedding_B): ParameterDict()\n","                  )\n","                  (dropout): Dropout(p=0.1, inplace=False)\n","                )\n","                (output): BertSelfOutput(\n","                  (dense): Linear(in_features=768, out_features=768, bias=True)\n","                  (LayerNorm): LayerNorm((768,), eps=1e-12, elementwise_affine=True)\n","                  (dropout): Dropout(p=0.1, inplace=False)\n","                )\n","              )\n","              (intermediate): BertIntermediate(\n","                (dense): Linear(in_features=768, out_features=3072, bias=True)\n","                (intermediate_act_fn): GELUActivation()\n","              )\n","              (output): BertOutput(\n","                (dense): Linear(in_features=3072, out_features=768, bias=True)\n","                (LayerNorm): LayerNorm((768,), eps=1e-12, elementwise_affine=True)\n","                (dropout): Dropout(p=0.1, inplace=False)\n","              )\n","            )\n","          )\n","        )\n","        (pooler): BertPooler(\n","          (dense): Linear(in_features=768, out_features=768, bias=True)\n","          (activation): Tanh()\n","        )\n","      )\n","      (dropout): Dropout(p=0.1, inplace=False)\n","      (classifier): ModulesToSaveWrapper(\n","        (original_module): Linear(in_features=768, out_features=3, bias=True)\n","        (modules_to_save): ModuleDict(\n","          (default): Linear(in_features=768, out_features=3, bias=True)\n","        )\n","      )\n","    )\n","  )\n",")"]},"metadata":{},"execution_count":41}]},{"cell_type":"code","source":["!pip install peft"],"metadata":{"colab":{"base_uri":"https://localhost:8080/"},"id":"iHksymLe8WAF","executionInfo":{"status":"ok","timestamp":1701225538394,"user_tz":480,"elapsed":11734,"user":{"displayName":"Gavin C Zhang","userId":"
…
4327,"user":{"displayName":"Gavin C Zhang","userId":"14842059655519886287"}},"outputId":"d9284336-a298-4b4b-c84f-0a6c6f7796a0"},"source":["# Load a trained model and vocabulary that you have fine-tuned\n","model = BertForSequenceClassification.from_pretrained(output_dir)\n","tokenizer = BertTokenizer.from_pretrained(output_dir)\n","\n","# Copy the model to the GPU.\n","model.to(device)"],"execution_count":null,"outputs":[{"output_type":"execute_result","data":{"text/plain":["BertForSequenceClassification(\n","  (bert): BertModel(\n","    (embeddings): BertEmbeddings(\n","      (word_embeddings): Embedding(30522, 768, padding_idx=0)\n","      (position_embeddings): Embedding(512, 768)\n","      (token_type_embeddings): Embedding(2, 768)\n","      (LayerNorm): LayerNorm((768,), eps=1e-12, elementwise_affine=True)\n","      (dropout): Dropout(p=0.1, inplace=False)\n","    )\n","    (encoder): BertEncoder(\n","      (layer): ModuleList(\n","        (0-11): 12 x BertLayer(\n","          (attention): BertAttention(\n","            (self): BertSelfAttention(\n","              (query): Linear(in_features=768, out_features=768, bias=True)\n","              (key): Linear(in_features=768, out_features=768, bias=True)\n","              (value): Linear(in_features=768, out_features=768, bias=True)\n","              (dropout): Dropout(p=0.1, inplace=False)\n","            )\n","            (output): BertSelfOutput(\n","              (dense): Linear(in_features=768, out_features=768, bias=True)\n","              (LayerNorm): LayerNorm((768,), eps=1e-12, elementwise_affine=True)\n","              (dropout): Dropout(p=0.1, inplace=False)\n","            )\n","          )\n","          (intermediate): BertIntermediate(\n","            (dense): Linear(in_features=768, out_features=3072, bias=True)\n","            (intermediate_act_fn): GELUActivation()\n","          )\n","          (output): BertOutput(\n","            (dense): Linear(in_features=3072, out_features=768, bias=True)\n","            (LayerNorm): LayerNorm((768,), eps=1e-12, elementwise_affine=True)\n","            (dropout): Dropout(p=0.1, inplace=False)\n","          )\n","        )\n","      )\n","    )\n","    (pooler): BertPooler(\n","      (dense): Linear(in_features=768, out_features=768, bias=True)\n","      (activation): Tanh()\n","    )\n","  )\n","  (dropout): Dropout(p=0.1, inplace=False)\n","  (classifier): Linear(in_features=768, out_features=2, bias=True)\n",")"]},"metadata":{},"execution_count":25}]}]}